<?xml version="1.0"?>
<net name="age_gender" version="3" batch="1">
	<layers>
		<layer name="data" type="Input" precision="FP32" id="0">
			<output>
				<port id="0">
					<dim>1</dim>
					<dim>3</dim>
					<dim>62</dim>
					<dim>62</dim>
				</port>
			</output>
		</layer>
		<layer name="conv1" type="Convolution" precision="FP32" id="1">
			<data dilations="1,1" group="1" kernel="3,3" output="48" pads_begin="0,0" pads_end="0,0" quantization_level="I8" strides="1,1" />
			<input>
				<port id="0">
					<dim>1</dim>
					<dim>3</dim>
					<dim>62</dim>
					<dim>62</dim>
				</port>
			</input>
			<output>
				<port id="1">
					<dim>1</dim>
					<dim>48</dim>
					<dim>60</dim>
					<dim>60</dim>
				</port>
			</output>
			<blobs>
				<biases offset="0" size="192" />
				<weights offset="192" size="5184" />
			</blobs>
		</layer>
		<layer name="pool1" type="Pooling" precision="FP32" id="2">
			<data exclude-pad="true" kernel="3,3" pads_begin="0,0" pads_end="0,0" pool-method="max" rounding_type="ceil" strides="2,2" />
			<input>
				<port id="0">
					<dim>1</dim>
					<dim>48</dim>
					<dim>60</dim>
					<dim>60</dim>
				</port>
			</input>
			<output>
				<port id="1">
					<dim>1</dim>
					<dim>48</dim>
					<dim>30</dim>
					<dim>30</dim>
				</port>
			</output>
		</layer>
		<layer name="relu1" type="ReLU" precision="FP32" id="3">
			<data negative_slope="0.0" />
			<input>
				<port id="0">
					<dim>1</dim>
					<dim>48</dim>
					<dim>30</dim>
					<dim>30</dim>
				</port>
			</input>
			<output>
				<port id="1">
					<dim>1</dim>
					<dim>48</dim>
					<dim>30</dim>
					<dim>30</dim>
				</port>
			</output>
		</layer>
		<layer name="conv2" type="Convolution" precision="FP32" id="4">
			<data dilations="1,1" group="1" kernel="3,3" output="64" pads_begin="0,0" pads_end="0,0" quantization_level="I8" strides="1,1" />
			<input>
				<port id="0">
					<dim>1</dim>
					<dim>48</dim>
					<dim>30</dim>
					<dim>30</dim>
				</port>
			</input>
			<output>
				<port id="1">
					<dim>1</dim>
					<dim>64</dim>
					<dim>28</dim>
					<dim>28</dim>
				</port>
			</output>
			<blobs>
				<biases offset="5376" size="256" />
				<weights offset="5632" size="110592" />
			</blobs>
		</layer>
		<layer name="pool2" type="Pooling" precision="FP32" id="5">
			<data exclude-pad="true" kernel="3,3" pads_begin="0,0" pads_end="0,0" pool-method="max" rounding_type="ceil" strides="2,2" />
			<input>
				<port id="0">
					<dim>1</dim>
					<dim>64</dim>
					<dim>28</dim>
					<dim>28</dim>
				</port>
			</input>
			<output>
				<port id="1">
					<dim>1</dim>
					<dim>64</dim>
					<dim>14</dim>
					<dim>14</dim>
				</port>
			</output>
		</layer>
		<layer name="relu2" type="ReLU" precision="FP32" id="6">
			<data negative_slope="0.0" />
			<input>
				<port id="0">
					<dim>1</dim>
					<dim>64</dim>
					<dim>14</dim>
					<dim>14</dim>
				</port>
			</input>
			<output>
				<port id="1">
					<dim>1</dim>
					<dim>64</dim>
					<dim>14</dim>
					<dim>14</dim>
				</port>
			</output>
		</layer>
		<layer name="conv3" type="Convolution" precision="FP32" id="7">
			<data dilations="1,1" group="1" kernel="3,3" output="96" pads_begin="1,1" pads_end="1,1" quantization_level="I8" strides="1,1" />
			<input>
				<port id="0">
					<dim>1</dim>
					<dim>64</dim>
					<dim>14</dim>
					<dim>14</dim>
				</port>
			</input>
			<output>
				<port id="1">
					<dim>1</dim>
					<dim>96</dim>
					<dim>14</dim>
					<dim>14</dim>
				</port>
			</output>
			<blobs>
				<biases offset="116224" size="384" />
				<weights offset="116608" size="221184" />
			</blobs>
		</layer>
		<layer name="pool3" type="Pooling" precision="FP32" id="8">
			<data exclude-pad="true" kernel="3,3" pads_begin="0,0" pads_end="0,0" pool-method="max" rounding_type="ceil" strides="2,2" />
			<input>
				<port id="0">
					<dim>1</dim>
					<dim>96</dim>
					<dim>14</dim>
					<dim>14</dim>
				</port>
			</input>
			<output>
				<port id="1">
					<dim>1</dim>
					<dim>96</dim>
					<dim>7</dim>
					<dim>7</dim>
				</port>
			</output>
		</layer>
		<layer name="relu3" type="ReLU" precision="FP32" id="9">
			<data negative_slope="0.0" />
			<input>
				<port id="0">
					<dim>1</dim>
					<dim>96</dim>
					<dim>7</dim>
					<dim>7</dim>
				</port>
			</input>
			<output>
				<port id="1">
					<dim>1</dim>
					<dim>96</dim>
					<dim>7</dim>
					<dim>7</dim>
				</port>
			</output>
		</layer>
		<layer name="conv4" type="Convolution" precision="FP32" id="10">
			<data dilations="1,1" group="1" kernel="3,3" output="192" pads_begin="0,0" pads_end="0,0" quantization_level="I8" strides="1,1" />
			<input>
				<port id="0">
					<dim>1</dim>
					<dim>96</dim>
					<dim>7</dim>
					<dim>7</dim>
				</port>
			</input>
			<output>
				<port id="1">
					<dim>1</dim>
					<dim>192</dim>
					<dim>5</dim>
					<dim>5</dim>
				</port>
			</output>
			<blobs>
				<biases offset="337792" size="768" />
				<weights offset="338560" size="663552" />
			</blobs>
		</layer>
		<layer name="relu4" type="ReLU" precision="FP32" id="11">
			<data negative_slope="0.0" />
			<input>
				<port id="0">
					<dim>1</dim>
					<dim>192</dim>
					<dim>5</dim>
					<dim>5</dim>
				</port>
			</input>
			<output>
				<port id="1">
					<dim>1</dim>
					<dim>192</dim>
					<dim>5</dim>
					<dim>5</dim>
				</port>
			</output>
		</layer>
		<layer name="conv5" type="Convolution" precision="FP32" id="12">
			<data dilations="1,1" group="1" kernel="3,3" output="256" pads_begin="0,0" pads_end="0,0" quantization_level="I8" strides="1,1" />
			<input>
				<port id="0">
					<dim>1</dim>
					<dim>192</dim>
					<dim>5</dim>
					<dim>5</dim>
				</port>
			</input>
			<output>
				<port id="1">
					<dim>1</dim>
					<dim>256</dim>
					<dim>3</dim>
					<dim>3</dim>
				</port>
			</output>
			<blobs>
				<biases offset="1002112" size="1024" />
				<weights offset="1003136" size="1769472" />
			</blobs>
		</layer>
		<layer name="relu5" type="ReLU" precision="FP32" id="13">
			<data negative_slope="0.0" />
			<input>
				<port id="0">
					<dim>1</dim>
					<dim>256</dim>
					<dim>3</dim>
					<dim>3</dim>
				</port>
			</input>
			<output>
				<port id="1">
					<dim>1</dim>
					<dim>256</dim>
					<dim>3</dim>
					<dim>3</dim>
				</port>
			</output>
		</layer>
		<layer name="gender_conv1" type="Convolution" precision="FP32" id="14">
			<data dilations="1,1" group="1" kernel="3,3" output="256" pads_begin="0,0" pads_end="0,0" quantization_level="I8" strides="1,1" />
			<input>
				<port id="0">
					<dim>1</dim>
					<dim>256</dim>
					<dim>3</dim>
					<dim>3</dim>
				</port>
			</input>
			<output>
				<port id="1">
					<dim>1</dim>
					<dim>256</dim>
					<dim>1</dim>
					<dim>1</dim>
				</port>
			</output>
			<blobs>
				<biases offset="2772608" size="1024" />
				<weights offset="2773632" size="2359296" />
			</blobs>
		</layer>
		<layer name="relu6_g" type="ReLU" precision="FP32" id="15">
			<data negative_slope="0.0" />
			<input>
				<port id="0">
					<dim>1</dim>
					<dim>256</dim>
					<dim>1</dim>
					<dim>1</dim>
				</port>
			</input>
			<output>
				<port id="1">
					<dim>1</dim>
					<dim>256</dim>
					<dim>1</dim>
					<dim>1</dim>
				</port>
			</output>
		</layer>
		<layer name="gender_conv2" type="Convolution" precision="FP32" id="16">
			<data dilations="1,1" group="1" kernel="1,1" output="512" pads_begin="0,0" pads_end="0,0" quantization_level="I8" strides="1,1" />
			<input>
				<port id="0">
					<dim>1</dim>
					<dim>256</dim>
					<dim>1</dim>
					<dim>1</dim>
				</port>
			</input>
			<output>
				<port id="1">
					<dim>1</dim>
					<dim>512</dim>
					<dim>1</dim>
					<dim>1</dim>
				</port>
			</output>
			<blobs>
				<biases offset="5132928" size="2048" />
				<weights offset="5134976" size="524288" />
			</blobs>
		</layer>
		<layer name="relu7_g" type="ReLU" precision="FP32" id="17">
			<data negative_slope="0.0" />
			<input>
				<port id="0">
					<dim>1</dim>
					<dim>512</dim>
					<dim>1</dim>
					<dim>1</dim>
				</port>
			</input>
			<output>
				<port id="1">
					<dim>1</dim>
					<dim>512</dim>
					<dim>1</dim>
					<dim>1</dim>
				</port>
			</output>
		</layer>
		<layer name="gender_conv3" type="Convolution" precision="FP32" id="18">
			<data dilations="1,1" group="1" kernel="1,1" output="2" pads_begin="0,0" pads_end="0,0" quantization_level="I8" strides="1,1" />
			<input>
				<port id="0">
					<dim>1</dim>
					<dim>512</dim>
					<dim>1</dim>
					<dim>1</dim>
				</port>
			</input>
			<output>
				<port id="1">
					<dim>1</dim>
					<dim>2</dim>
					<dim>1</dim>
					<dim>1</dim>
				</port>
			</output>
			<blobs>
				<biases offset="5659264" size="8" />
				<weights offset="5659272" size="4096" />
			</blobs>
		</layer>
		<layer name="prob" type="SoftMax" precision="FP32" id="19">
			<data axis="1" />
			<input>
				<port id="0">
					<dim>1</dim>
					<dim>2</dim>
					<dim>1</dim>
					<dim>1</dim>
				</port>
			</input>
			<output>
				<port id="1">
					<dim>1</dim>
					<dim>2</dim>
					<dim>1</dim>
					<dim>1</dim>
				</port>
			</output>
		</layer>
		<layer name="age_conv1" type="Convolution" precision="FP32" id="20">
			<data dilations="1,1" group="1" kernel="3,3" output="256" pads_begin="0,0" pads_end="0,0" quantization_level="I8" strides="1,1" />
			<input>
				<port id="0">
					<dim>1</dim>
					<dim>256</dim>
					<dim>3</dim>
					<dim>3</dim>
				</port>
			</input>
			<output>
				<port id="1">
					<dim>1</dim>
					<dim>256</dim>
					<dim>1</dim>
					<dim>1</dim>
				</port>
			</output>
			<blobs>
				<biases offset="5663368" size="1024" />
				<weights offset="5664392" size="2359296" />
			</blobs>
		</layer>
		<layer name="relu6_a" type="ReLU" precision="FP32" id="21">
			<data negative_slope="0.0" />
			<input>
				<port id="0">
					<dim>1</dim>
					<dim>256</dim>
					<dim>1</dim>
					<dim>1</dim>
				</port>
			</input>
			<output>
				<port id="1">
					<dim>1</dim>
					<dim>256</dim>
					<dim>1</dim>
					<dim>1</dim>
				</port>
			</output>
		</layer>
		<layer name="age_conv2" type="Convolution" precision="FP32" id="22">
			<data dilations="1,1" group="1" kernel="1,1" output="512" pads_begin="0,0" pads_end="0,0" quantization_level="I8" strides="1,1" />
			<input>
				<port id="0">
					<dim>1</dim>
					<dim>256</dim>
					<dim>1</dim>
					<dim>1</dim>
				</port>
			</input>
			<output>
				<port id="1">
					<dim>1</dim>
					<dim>512</dim>
					<dim>1</dim>
					<dim>1</dim>
				</port>
			</output>
			<blobs>
				<biases offset="8023688" size="2048" />
				<weights offset="8025736" size="524288" />
			</blobs>
		</layer>
		<layer name="relu7_a" type="ReLU" precision="FP32" id="23">
			<data negative_slope="0.0" />
			<input>
				<port id="0">
					<dim>1</dim>
					<dim>512</dim>
					<dim>1</dim>
					<dim>1</dim>
				</port>
			</input>
			<output>
				<port id="1">
					<dim>1</dim>
					<dim>512</dim>
					<dim>1</dim>
					<dim>1</dim>
				</port>
			</output>
		</layer>
		<layer name="age_conv3" type="Convolution" precision="FP32" id="24">
			<data dilations="1,1" group="1" kernel="1,1" output="1" pads_begin="0,0" pads_end="0,0" quantization_level="I8" strides="1,1" />
			<input>
				<port id="0">
					<dim>1</dim>
					<dim>512</dim>
					<dim>1</dim>
					<dim>1</dim>
				</port>
			</input>
			<output>
				<port id="1">
					<dim>1</dim>
					<dim>1</dim>
					<dim>1</dim>
					<dim>1</dim>
				</port>
			</output>
			<blobs>
				<biases offset="8550024" size="4" />
				<weights offset="8550028" size="2048" />
			</blobs>
		</layer>
	</layers>
	<edges>
		<edge from-layer="0" from-port="0" to-layer="1" to-port="0" />
		<edge from-layer="1" from-port="1" to-layer="2" to-port="0" />
		<edge from-layer="2" from-port="1" to-layer="3" to-port="0" />
		<edge from-layer="3" from-port="1" to-layer="4" to-port="0" />
		<edge from-layer="4" from-port="1" to-layer="5" to-port="0" />
		<edge from-layer="5" from-port="1" to-layer="6" to-port="0" />
		<edge from-layer="6" from-port="1" to-layer="7" to-port="0" />
		<edge from-layer="7" from-port="1" to-layer="8" to-port="0" />
		<edge from-layer="8" from-port="1" to-layer="9" to-port="0" />
		<edge from-layer="9" from-port="1" to-layer="10" to-port="0" />
		<edge from-layer="10" from-port="1" to-layer="11" to-port="0" />
		<edge from-layer="11" from-port="1" to-layer="12" to-port="0" />
		<edge from-layer="12" from-port="1" to-layer="13" to-port="0" />
		<edge from-layer="13" from-port="1" to-layer="20" to-port="0" />
		<edge from-layer="13" from-port="1" to-layer="14" to-port="0" />
		<edge from-layer="14" from-port="1" to-layer="15" to-port="0" />
		<edge from-layer="15" from-port="1" to-layer="16" to-port="0" />
		<edge from-layer="16" from-port="1" to-layer="17" to-port="0" />
		<edge from-layer="17" from-port="1" to-layer="18" to-port="0" />
		<edge from-layer="18" from-port="1" to-layer="19" to-port="0" />
		<edge from-layer="20" from-port="1" to-layer="21" to-port="0" />
		<edge from-layer="21" from-port="1" to-layer="22" to-port="0" />
		<edge from-layer="22" from-port="1" to-layer="23" to-port="0" />
		<edge from-layer="23" from-port="1" to-layer="24" to-port="0" />
	</edges>
	<statistics>
		<layer>
			<name>age_conv1</name>
			<min>… -0.057386</min>
			<max>… -0.057204</max>
		</layer>
		<layer>
			<name>age_conv2</name>
			<min>… -0.111434</min>
			<max>… -0.111284</max>
		</layer>
		<layer>
			<name>age_conv3</name>
			<min>0.198392</min>
			<max>0.597485</max>
		</layer>
		<layer>
			<name>conv1</name>
			<min>… -17.805973</min>
			<max>… 15.028830</max>
		</layer>
		<layer>
			<name>conv2</name>
			<min>… -9.129491</min>
			<max>… 5.158763</max>
		</layer>
		<layer>
			<name>conv3</name>
			<min>… -6.358741</min>
			<max>… 4.573112</max>
		</layer>
		<layer>
			<name>conv4</name>
			<min>… -3.908456</min>
			<max>… 3.808530</max>
		</layer>
		<layer>
			<name>conv5</name>
			<min>… -0.015923</min>
			<max>… -0.014361</max>
		</layer>
		<layer>
			<name>data</name>
			<min>0.000000, 0.000000, 0.000000</min>
			<max>255.000000, 255.000000, 255.000000</max>
		</layer>
		<layer>
			<name>gender_conv1</name>
			<min>… -0.387720</min>
			<max>… 0.397174</max>
		</layer>
		<layer>
			<name>gender_conv2</name>
			<min>… -0.083355</min>
			<max>… 0.172089</max>
		</layer>
		<layer>
			<name>gender_conv3</name>
			<min>-3.639756, -2.893235</min>
			<max>2.893120, 3.639788</max>
		</layer>
		<layer>
			<name>pool1</name>
			<min>… -2.324511</min>
			<max>… 15.028830</max>
		</layer>
		<layer>
			<name>pool2</name>
			<min>… -2.831641</min>
			<max>… 5.158763</max>
		</layer>
		<layer>
			<name>pool3</name>
			<min>… -2.349171</min>
			<max>… 4.573112</max>
		</layer>
		<layer>
			<name>prob</name>
			<min>0.000689, 0.003060</min>
			<max>0.996940, 0.999311</max>
		</layer>
		<layer>
			<name>relu1</name>
			<min>… -0.000000</min>
			<max>… 15.028830</max>
		</layer>
		<layer>
			<name>relu2</name>
			<min>… -0.000000</min>
			<max>… 5.158763</max>
		</layer>
		<layer>
			<name>relu3</name>
			<min>… -0.000000</min>
			<max>… 4.573112</max>
		</layer>
		<layer>
			<name>relu4</name>
			<min>… -0.000000</min>
			<max>… 3.808530</max>
		</layer>
		<layer>
			<name>relu5</name>
			<min>… -0.000000</min>
			<max>… -0.000000</max>
		</layer>
		<layer>
			<name>relu6_a</name>
			<min>… -0.000000</min>
			<max>… -0.000000</max>
		</layer>
		<layer>
			<name>relu6_g</name>
			<min>… -0.000000</min>
			<max>… 0.397174</max>
		</layer>
		<layer>
			<name>relu7_a</name>
			<min>… -0.000000</min>
			<max>… -0.000000</max>
		</layer>
		<layer>
			<name>relu7_g</name>
			<min>… -0.000000</min>
			<max>… 0.172089</max>
		</layer>
	</statistics>
</net>
